model/model.pth (torch, 27411 bytes, 4 tensors)

linear1.weight f4 [135, 45]
000000 ae 57 d9 3d 00 33 10 be 1e a1 14 be 61 35 9f bd
       0.10612427 -0.14081955 -0.14514586 -0.07773853
000010 04 cd e9 bc f4 c7 2a bd 00 fb 5a 3c 36 1c 0f be
       -0.028540142 -0.041694596 0.013365507 -0.13975605
000020 2f 27 92 bd 7a 95 8b bd b8 58 11 3d 40 c4 b0 3d
       -0.0713638 -0.0681562 0.035485 0.08631182
000030 c0 f7 62 bb c3 34 05 3e 78 ec 6c bd 4c df 02 be
       -0.0034632534 0.13008408 -0.0578427 -0.12780493
000040 bc a2 46 3d 0e e9 e8 3d b0 fc 33 bc f0 b1 62 bd
       0.04849504 0.11372577 -0.010985538 -0.055345476
000050 dd af f6 bd 60 f4 da bb 41 55 aa bd a0 65 36 3c
       -0.12045262 -0.006681964 -0.08317042 0.011132628
000060 41 8e 07 be b0 89 df bd fa ec 97 bd 68 aa 9d bd
       -0.1323786 -0.10914934 -0.074182466 -0.07698518
000070 f0 ba c7 bd 80 23 74 3b d8 21 a5 3d a0 65 f0 bd
       -0.097524524 0.0037252605 0.08063096 -0.117381334
000080 9c 3e ac 3d 41 35 14 3e 60 f3 16 3d 20 10 7e bc
       0.08410379 0.1447344 0.036853194 -0.015506774
000090 db 1a 91 bd 3e 72 f8 3d a4 64 92 3d 3c 06 48 3d
       -0.070852004 0.12131165 0.07148102 0.04883407
0000a0 28 21 7d 3d 4d fa cb bd 7d 4c 00 3e 32 33 30 bd
       0.0617992 -0.099598505 0.12529178 -0.043017574
0000b0 4a 82 0e bd 66 2d 06 3e 0c 9a 85 3c 3c 02 b5 bd
       -0.034792222 0.13103256 0.016308807 -0.08838317
0000c0 78 64 24 bd a4 2b 4a bc db 2e 1a be c0 a3 5e 3d
       -0.040134877 -0.012339506 -0.15056936 0.054355383
0000d0 90 c0 9c bd 0b 5e de 3d d5 1d 0a 3e bc 35 31 bd
       -0.07653916 0.10857781 0.13487943 -0.043264136
0000e0 77 bf 00 bd 8b 7f 12 3e 3f 44 8d 3b 20 ac c0 3b
       -0.031432595 0.14306466 0.004311114 0.005879894
0000f0 46 a2 ef ba 9f d6 e3 3d b4 44 d4 bd f6 86 11 bd
       -0.0018282614 0.1112492 -0.103646666 -0.0355291
000100 fd 25 89 bb 85 ee ca bc 60 6b e8 bc 45 44 64 bd
       -0.0041854368 -0.024771938 -0.028371513 -0.05572917
000110 48 50 fd bd db da 6f bd ff 3b 02 3e eb fc b7 bc
       -0.12368828 -0.058558326 0.12718199 -0.022459468
000120 eb f2 0d 3d 13 56 1d 3c 9a 56 df bd 70 aa c8 3d
       0.034655493 0.009603041 -0.1090519 0.097981334
000130 21 96 e1 3d 79 6a f1 3d 94 92 02 3d 7a e7 9e bd
       0.11014963 0.11787886 0.03187807 -0.077589944
000140 f0 cf 4c 3d ed 2b b9 bc c1 30 b3 3c 08 ec a5 bb
       0.050002992 -0.022603953 0.021873834 -0.0050635375
000150 1c 14 88 bd 4b c2 c2 bd 32 b2 3d bd c4 43 06 3e
       -0.066444606 -0.09509715 -0.04631252 0.13111788
000160 94 d9 46 bd 52 7f 52 3d ba 5a f4 bc c4 81 4b 3c
       -0.048547342 0.051390953 -0.029828418 0.012421075
000170 a6 5b 1e 3c 91 5d bb 3c 94 9b 5b 3c ce a7 3a 3c
       0.009665405 0.022871764 0.013403792 0.011392547
000180 17 82 5c 3d 19 6a d5 bd 10 bd bf 3d 82 cf 56 3d
       0.053835 -0.10420627 0.09362233 0.05244399
000190 a9 7a 07 3e dc ee d3 3d 99 0b 5d 3b 96 85 2d bd
       0.13230385 0.10348293 0.0033728837 -0.042363726
0001a0 41 8e 93 bd e9 ab 2a 3d 4a f1 86 3d da 21 d9 3d
       -0.07204867 0.041667853 0.06588991 0.1060216
0001b0 07 82 0e 3c 17 b8 41 3c 82 55 ef 3d 8b f1 a7 3d
       0.008697993 0.011823676 0.11686231 0.082003675
0001c0 bc 00 13 3e bb d1 ee bd c4 84 a5 bd ed 71 14 3e
       0.14355749 -0.11661097 -0.08081964 0.14496584
0001d0 22 4b c1 3d c0 47 b3 bd 9d 24 6c bd 4c de 9f 3d
       0.094381586 -0.087539196 -0.057652105 0.07806072
0001e0 d5 5c d1 3d 82 5b 11 bd 7f 70 d9 bd a8 1c 16 3e
       0.102227844 -0.03548766 -0.1061716 0.14659369
0001f0 0d 07 c7 bd 05 8f 18 bd b3 4c 06 bd dc 33 38 3d
       -0.09718142 -0.03724577 -0.03278799 0.044971332
000200 2b 26 01 3d ce 72 72 bd c3 78 9c bd 08 60 85 3d
       0.03153054 -0.059191518 -0.07640221 0.06512457
000210 b0 fe 05 3e 8b a9 05 3e 42 02 e8 3d b8 83 e2 bd
       0.13085437 0.13052957 0.11328556 -0.110602796
000220 83 16 a4 bd fb ba 1a bd ab 1e 07 3e 09 62 ea bd
       -0.08012106 -0.037775975 0.13195293 -0.1144448
000230 ed 26 11 3e f1 3b 98 3d a5 bd 24 3d 46 6d d5 3c
       0.14175005 0.07433308 0.04021992 0.026053082
000240 8d 02 ba bd 71 1c 34 3c 83 1a 2e bd d7 41 1c 3d
       -0.09082518 0.010993109 -0.042505752 0.038148727
000250 90 72 93 3d 17 5a a6 3d bf ac ab 3d cd 33 0b 3e
       0.071995854 0.08122652 0.08382558 0.13593979
000260 9d 75 73 3c 5b 5b 53 bd ab 2f d1 3d ac e7 16 3e
       0.014859584 -0.051600795 0.1021417 0.14736813
000270 d5 55 bf 3c 41 55 03 3e f1 5c d0 3d 12 75 f9 3d
       0.023356358 0.1282549 0.10173977 0.121805325
000280 0c a4 09 bb 50 1d 44 3d 7a 83 d0 bd 45 75 8d 3b
       -0.002100232 0.047879517 -0.10181327 0.004316958
000290 3d 48 cc bc b2 ce 07 3d 94 bb d1 bd c4 16 f3 bd
       -0.02493679 0.033156104 -0.10240856 -0.118695766
0002a0 92 5f a2 3d 45 fd 5a 3d 12 b1 ef 3c 93 69 11 3e
       0.07928385 0.053464193 0.029259238 0.1420043
0002b0 73 6b 3e 3d 3b d9 d7 bd c1 69 13 be 88 3b cb 3d
       0.04648919 -0.1053948 -0.1439581 0.09923464
0002c0 51 db 06 3e a4 82 12 bc 07 e6 a4 bd 24 25 00 3c
       0.131696 -0.00894228 -0.08051687 0.007821355
0002d0 24 88 7b bd 54 e1 91 bd 1f 08 15 3e fc f3 c7 3d
       -0.06140913 -0.07123056 0.14553879 0.09763333
0002e0 d3 ae b7 bd 84 e3 72 bd 69 9b 04 3e 2d fa 03 3e
       -0.08968892 -0.059299007 0.1294991 0.12888403
0002f0 08 e0 68 bd d0 b3 12 3c d0 44 75 3c e8 b7 b6 3c
       -0.056854278 0.008954003 0.014970019 0.02230449
000300 dd 92 01 be 90 79 02 bd ac 9f 07 bd f0 ff e9 3c
       -0.1265368 -0.031854212 -0.03311126 0.028564423
000310 6e 8a ca 3d 6e b0 c6 3d 50 13 5f 3d 94 2f ce 3d
       0.098896846 0.0970162 0.054461777 0.100676686
000320 4a 9b 19 bd d1 70 d9 bd ca 59 f8 3d 07 71 04 3e
       -0.03750161 -0.10617221 0.12126501 0.12933742
000330 38 b1 3b 3d af 37 dd bd 71 47 05 3e 0a 8a 79 bd
       0.045823306 -0.108016364 0.13015534 -0.06092266
000340 87 32 89 bd b0 fc 1a 3c 0a 81 88 3d aa 89 89 3d
       -0.066990905 0.009459659 0.06665237 0.067157105
000350 37 27 fd bd 6e 8e f0 bd 52 a6 c9 bd 4b e8 13 3e
       -0.12360995 -0.11745916 -0.09846176 0.14444081
000360 71 ae f8 bd 08 60 fe bd 18 93 13 bd ab 5c d6 bd
       -0.12142647 -0.1242066 -0.03602895 -0.10466894
000370 c2 3b 89 bd b0 ec 81 bc 01 6e 04 be 32 f0 8b 3d
       -0.06700851 -0.015859932 -0.12932588 0.06832923
000380 a0 60 c4 3d 00 b8 33 ba 80 5a 48 3c 02 45 f7 bd
       0.09588742 -0.0006855726 0.012228608 -0.12073709
000390 ac c0 c4 bd 58 a7 c0 3d d0 4c d5 3c 88 23 d2 bd
       -0.09607062 0.09406918 0.026037604 -0.10260683
0003a0 48 e7 b0 3d 3a 1d 44 bd 10 e8 fa bc 8f f3 b9 bd
       0.086378634 -0.047879435 -0.030628234 -0.09079658
0003b0 fc bf cc 3d 82 16 03 be b8 37 ed 3c 9d 82 0f be
       0.099975556 -0.12801555 0.028957233 -0.14014669
0003c0 29 49 aa bd 38 6c e6 3c a0 eb 0c bd 30 25 d2 bd
       -0.083147354 0.028127775 -0.034404397 -0.10260999
0003d0 c8 6a 98 3d 9e 0d cc bd d8 87 a9 3d ab 29 f0 bd
       0.07442242 -0.09963535 0.08277863 -0.117266975
0003e0 16 16 f9 3d 90 80 6b 3d c0 43 8f bb 70 19 7e bd
       0.12162416 0.057495654 -0.00437209 -0.062035978
0003f0 a6 23 0e be 75 0c 0f 3e a8 40 9b 3d 50 85 1c bc
       -0.13880786 0.13969596 0.075806916 -0.009553269

linear1.bias f4 [135]
000000 92 6f 13 be 12 eb 91 ba 08 25 83 3d a3 65 7b bc
       -0.1439803 -0.0011132678 0.064035475 -0.015344056
000010 28 85 41 3d 59 a3 04 3e 35 a9 d6 3d d0 8c 2f bc
       0.04724613 0.12952937 0.104814924 -0.010714725
000020 83 6a c4 bd 04 85 96 bd 8b 84 06 bd 72 b1 d4 3d
       -0.09590628 -0.073495895 -0.032841247 0.103854075
000030 e8 e3 80 bc c0 9e 45 bc 2e fa 36 3d f6 b6 d4 3d
       -0.015733674 -0.012061775 0.044672184 0.103864595
000040 6f 75 97 3d 16 74 6b bd 0a 82 15 be c3 b5 6e 3d
       0.073954456 -0.057483755 -0.14600387 0.05827881
000050 4f 36 0a 3e 46 26 d6 bd 0b 96 13 be d5 3a 12 3e
       0.1349728 -0.10456519 -0.14412706 0.14280255
000060 be 51 18 be 5f 1a cc 3d a8 ec a6 bc ea a1 10 3d
       -0.14874932 0.099659674 -0.020376518 0.035310663
000070 40 a0 02 bd a5 c2 aa bd 9b ea 0f bc 48 00 4a bd
       -0.031891108 -0.08337907 -0.008783962 -0.049316674
000080 c8 00 ef bd a3 99 bc 3d a8 3c 10 be 39 a4 cc bd
       -0.11670071 0.092089914 -0.14085639 -0.099922605
000090 c5 cd ae 3d fd a7 15 3e 2d dc 9c bd 27 5b f7 3d
       0.08535341 0.14614864 -0.07659183 0.12077933
0000a0 0e ca bb bd d8 00 b5 bd 0d 5a f5 bc d1 30 b3 3c
       -0.09169398 -0.088380516 -0.029950166 0.021873863
0000b0 44 e9 f6 bd c1 c1 75 3c 9e 21 60 bd bf f2 b2 3d
       -0.12056211 0.014999808 -0.05471956 0.087377064
0000c0 64 80 1a 3d 8d 62 3d 3d ee 8d f8 bc c6 ac c4 3d
       0.0377201 0.046236563 -0.030341115 0.096032664
0000d0 82 bc cd 3d d3 e4 fd 3d 00 a8 10 b9 62 47 25 bd
       0.10045721 0.123971604 -0.00013795495 -0.04035128
0000e0 60 b4 0b 3d a6 57 41 bd 8c 1f 1c 3d 16 17 b7 bd
       0.034107566 -0.04720273 0.038116023 -0.0893995
0000f0 62 cb ca 3b 10 fe 71 3d 44 6a 70 bd c9 ba 01 bd
       0.006188796 0.059080184 -0.058695093 -0.031672273
000100 bc d8 fc 3c 2c be 80 bd 84 c9 e5 bd 93 3e dc bd
       0.030865066 -0.062862724 -0.11220077 -0.107541226
000110 1f 4e 0c 3e 64 e2 0d bd e4 a4 cf bd 62 e5 ee bd
       0.13701676 -0.03463973 -0.10138872 -0.11664845
000120 c0 15 37 3c 0a 9d 15 3e 85 1b bc 3d ec 75 03 3c
       0.011174619 0.14610687 0.091849364 0.00802372
000130 e0 e1 d2 bc 46 65 d3 bd 6d bd 22 bc 08 8d b1 bd
       -0.025742471 -0.10322051 -0.009932858 -0.08669478
000140 8f 4b e9 3d 98 24 7a bd af d3 12 bd 24 e7 0a 3d
       0.11391365 -0.061070055 -0.03584641 0.03391184
000150 b6 d4 01 be a8 c0 1d be d8 cb c7 bd 61 0d 19 3d
       -0.12678799 -0.15405524 -0.09755677 0.037366275
000160 e0 65 d5 bb 60 b5 e8 bb 18 f9 bb bd a6 a8 08 be
       -0.0065123886 -0.0071016997 -0.0917837 -0.13345584
000170 4c 05 8d 3b fd 63 b0 3a 13 4e f6 3c f0 fa ab bc
       0.00430361 0.0013457533 0.030066526 -0.02099368
000180 d0 03 d6 3c 32 54 ec bd 1c db 71 3d 99 78 94 3a
       0.026124865 -0.115394965 0.05904685 0.0011327445
000190 45 45 9f bc f5 12 98 bb 2a a6 b2 3c 50 68 f8 3c
       -0.01944221 -0.0046409317 0.021807749 0.030323178
0001a0 43 c4 81 3d 8f b6 a7 3d 40 61 53 3d e6 70 ec 3d
       0.06336262 0.08189117 0.051606417 0.11544971
0001b0 20 08 8e 3b a8 71 8b 3c 24 83 12 be d5 89 9a bd
       0.0043344647 0.017021969 -0.14307839 -0.075458206
0001c0 67 86 b7 3d 78 0e 55 bd 00 83 16 bb cb 2a 37 3d
       0.08961182 -0.05201575 -0.0022966266 0.044718545
0001d0 ec 69 ed 3d 40 a9 52 bd 23 a5 93 3d df 35 13 be
       0.115924686 -0.05143094 0.07209232 -0.14376019
0001e0 0a d4 a5 bd d9 3b 09 3e 6c 93 83 3d c0 8f 63 3b
       -0.08097084 0.13401736 0.06424603 0.0034723133
0001f0 48 2e ba bc 77 5d 67 3d 20 3f c2 bb 41 1e c7 3d
       -0.022727147 0.05648562 -0.0059279352 0.09722567
000200 6e d7 74 bd e6 46 db 3d 3b 18 de 3d 80 90 7a bd
       -0.059775762 0.10706882 0.10844465 -0.061172962
000210 38 b1 91 bc a0 da 8b 3b f4 4f 9e bd
       -0.0177847 0.0042680055 -0.077300936

linear2.weight f4 [2, 135]
000000 40 a5 67 3b 7c f9 38 bd 0b be 65 bc bd d3 94 bd
       0.00353463 -0.0451598 -0.014022361 -0.07266948
000010 86 a6 8d bd 3e 1e 25 3d 4b 71 3b bc 50 46 4a 3c
       -0.069165275 0.040312044 -0.011440585 0.012345865
000020 56 06 05 3d 82 97 72 3d 86 7c 8b bd 46 a7 2c 3d
       0.032476746 0.05922652 -0.0681086 0.042151712
000030 bc 7a 0b 3d 7b f3 82 3d ef ee 1f 3c 10 43 82 bb
       0.034052595 0.063940965 0.009761556 -0.0039752796
000040 33 2a 44 bb bb f6 8c 3d 36 cf 5c 3d b4 3d 26 bd
       -0.002993238 0.068829976 0.05390855 -0.04058619
000050 94 b1 a5 bc db c1 31 3d 10 43 08 bc c2 a2 18 bd
       -0.020226277 0.043397766 -0.00831677 -0.037264593
000060 c3 b7 94 3d 55 fa 8d 3c fd 23 85 bc 4f fb 85 bd
       0.07261612 0.017331282 -0.016252512 -0.06542074
000070 76 8a 0d bc 18 a4 fb 3c a0 76 97 3d 24 ff 9b 3c
       -0.008638969 0.030717894 0.07395673 0.019042559
000080 44 d9 ed 3c 8e 8a c3 3b 69 7f 9f 3d 64 eb 76 bd
       0.029034264 0.0059674447 0.077879734 -0.06028308
000090 c6 5b 16 3d 91 52 22 bd 3c 45 18 bd 94 db 45 bd
       0.036708616 -0.039629523 -0.037175402 -0.04830511
0000a0 82 dc de bc fd 2b b4 3c 9a a4 86 3d 4e 5c e8 bb
       -0.027204756 0.021993631 0.06574364 -0.0070910817
0000b0 70 8b 16 3d 30 89 a3 3d 77 71 98 bd ac ba 7e bd
       0.03675407 0.07985151 -0.07443517 -0.062189743
0000c0 be 80 0a 3d 28 ee 89 3d c4 fe 4d 3d 83 67 3a bd
       0.033814184 0.06734878 0.05029179 -0.045508873
0000d0 78 00 d6 bc 60 8f 12 3c 40 36 3e 3b 58 3e a0 3c
       -0.02612327 0.008945316 0.0029024035 0.019560978
0000e0 96 26 64 3b 70 26 4f bd 24 c6 ef bc 97 f8 1e bd
       0.0034813038 -0.050573766 -0.029269286 -0.038811292
0000f0 9d 44 14 bc ec 75 a1 3c 06 53 7a 3d 15 48 21 bc
       -0.009049562 0.01970955 0.061114334 -0.009843846
000100 1d 7c d8 3c 22 f9 43 3d e0 99 f0 bb 60 95 8a 3d
       0.02642637 0.047845013 -0.007342562 0.06766772
000110 7e bc 55 3d 0b f7 56 bd b4 6b 1c 3d ae 2a 72 3c
       0.052181713 -0.052481692 0.03818865 0.014780683
000120 20 81 9a 3b e2 7e 8e bd e7 51 25 3d 13 a4 88 bd
       0.0047151 -0.06957795 0.04036131 -0.0667192
000130 60 ab 10 3c 83 14 0e bd e3 f3 6d 3d e1 5d 86 bd
       0.0088299215 -0.03468753 0.058093917 -0.06560875
000140 92 6a 1e bc af 5e 57 bd 09 aa 7a 3d 9d 86 05 bd
       -0.009668963 -0.05258053 0.061197314 -0.03259908
000150 35 9d e5 3c 0c d2 b9 bc e7 98 c2 3b ae 9a 58 bc
       0.028029064 -0.022683166 0.0059386375 -0.013220472
000160 2a 58 25 3d 34 6b 95 bd a7 f9 67 3d f4 3f 94 bc
       0.040367283 -0.07295838 0.05663457 -0.018096901
000170 4d a7 ed 3a af 3e 22 bd 68 08 1b 3d ee a9 3e 3d
       0.0018131525 -0.03961056 0.037849814 0.046548776
000180 08 da 69 bc 19 ef 58 bd 0c 27 28 3d ae a5 e7 bc
       -0.014273174 -0.052962396 0.041052863 -0.028277244
000190 0b da 34 bc 3a 75 e7 bb bf 03 45 bd e6 0e 3b 3d
       -0.011038314 -0.007063535 -0.048099276 0.045668505
0001a0 31 39 2d bb 55 52 43 bc d8 36 fa 3b 2b ce 52 bd
       -0.0026431794 -0.011921485 0.0076359324 -0.05146615
0001b0 bb b4 a2 3d c2 e7 17 3d ad 93 be 3c f3 9c 9d bc
       0.07944628 0.037086256 0.023263777 -0.019239878
0001c0 4d f5 6e 3c 9d d3 93 3d ae dc 32 3d 9c 87 c4 bc
       0.014584851 0.072180964 0.043667488 -0.023990445
0001d0 90 bb 24 bd d0 6b d3 bb 40 6d 22 3c a8 39 a1 3d
       -0.040217936 -0.0064520612 0.009913743 0.07872325
0001e0 2a 12 c3 3c 13 1f 99 bd 2c c1 28 bd a0 84 3c 3b
       0.023812372 -0.0747663 -0.041199848 0.0028765574
0001f0 12 6f 49 3d 45 a8 4d bd de 48 5f bd 99 ea 9a bd
       0.04917819 -0.050209302 -0.05451285 -0.07564277
000200 30 7c d2 3c 53 eb f5 bb 2d e0 0b 3d b3 1e ab 3d
       0.025693983 -0.0075048595 0.034149338 0.08355465
000210 48 83 15 bc d4 71 ec bc f6 a7 04 bd 24 70 35 bd
       -0.009125538 -0.028862871 -0.032386743 -0.0442964
000220 4c d1 c9 3c 1f ff 94 bd 90 e3 ef 3b bb 11 92 3d
       0.024635933 -0.07275223 0.0073208287 0.07132288
000230 9a 89 4c 3d 5a f4 32 3d bc 5a 1f 3d 53 79 83 bd
       0.049935915 0.043690063 0.03890489 -0.06419625
000240 1f a7 89 3d e8 87 c6 3c 49 5d a5 3d 18 19 6a bc
       0.06721329 0.024234727 0.08074433 -0.014288209
000250 d0 62 73 bd 70 7f a2 3c db d4 18 bd 21 aa 84 3d
       -0.059420407 0.019836158 -0.03731237 0.06477762
000260 d0 06 ea 3b 4c 48 98 bc 6b 30 8c 3d 40 eb 75 bd
       0.0071419254 -0.018589161 0.068451725 -0.060038805
000270 c4 e9 aa bc b0 5b 99 3c 8e f4 d1 bc 88 9f 26 3c
       -0.020863421 0.018720478 -0.025629308 0.010169871
000280 2e aa 22 bd 58 ae a3 3c 20 85 7b bb 6a 70 75 3d
       -0.039713077 0.019980595 -0.003837891 0.05992166
000290 12 6b 17 3d 58 43 90 bd 3c c6 62 bd f9 a3 8b 3d
       0.036967345 -0.07044095 -0.055364832 0.06818385
0002a0 38 8d ab bc f0 de 8c bc 25 22 9e bd 80 7a 38 3c
       -0.020941362 -0.017196149 -0.07721356 0.011259675
0002b0 90 4a e5 bb e2 f2 43 bd 55 52 96 3d 12 44 8f bd
       -0.006997414 -0.047839053 0.07339922 -0.06995405
0002c0 fc a2 97 bd a4 f3 78 bd 7a ab 36 3d 75 d3 ae 3d
       -0.07404134 -0.06077923 0.044597127 0.08536426
0002d0 e8 2b 06 3c 16 1f 10 3d e0 4b 20 bb b6 0b 45 3d
       0.008189179 0.035185896 -0.0024459288 0.04810687
0002e0 38 83 73 bd d6 92 dd bc fe af 72 3d 32 2e 56 3d
       -0.05945131 -0.027047556 0.05924987 0.05229015
0002f0 b0 b4 92 3b 68 77 04 3c 20 2a 41 3c 1e 08 5d 3d
       0.004477106 0.008085109 0.011789829 0.05396282
000300 47 c7 71 bd b0 b2 ea bc fc 3d 89 3c 88 d8 0f bd
       -0.059027936 -0.028649658 0.01675319 -0.03511861
000310 b3 ef af 3d 37 51 a7 3d 40 d8 78 bd d0 85 95 bb
       0.08590641 0.081697874 -0.060753107 -0.004563071
000320 94 d8 a8 bd 00 98 9d bc f8 0c cd 3c a8 06 0f bc
       -0.08244434 -0.019237518 0.025030598 -0.008729614
000330 14 33 95 3c 6a 2c 08 3d a8 96 02 bd 6a ae 7d 3d
       0.018212833 0.03324548 -0.03188196 0.061933912
000340 8a 73 60 3d 32 c3 e1 bc 99 81 1d bd 20 d6 23 bb
       0.054797687 -0.027558897 -0.038453672 -0.0024999455
000350 ac d3 ea bc 93 73 59 bd 72 70 99 bd a8 e9 48 3c
       -0.028665386 -0.053088736 -0.0749215 0.012262739
000360 00 44 b0 b9 08 4d 6b 3c 64 7c 39 bd 00 0b 6b 3b
       -0.0003362 0.014361627 -0.045284644 0.003586471
000370 d0 b8 ad bd 26 38 40 3d a0 c5 d8 bb 0a a0 79 3d
       -0.08482516 0.046928547 -0.0066153556 0.06094364
000380 a0 8e 3f 3c 70 07 d2 bb 10 68 00 3c 2a 31 60 3d
       0.011691719 -0.006409578 0.00783731 0.054734387
000390 fb 7a 9a 3d 36 3e 31 3d 1a dd 2d 3d d8 64 fa 3c
       0.07542988 0.04327222 0.042447187 0.030565664
0003a0 62 cd 1b 3d 10 9a 94 bd ee f3 7e 3d 52 63 24 bd
       0.038037665 -0.072559476 0.06224435 -0.04013378
0003b0 14 03 b9 bc a0 5c 53 3c f0 74 30 bc 82 20 55 3d
       -0.022584476 0.0129005015 -0.010770068 0.052032955
0003c0 b8 c1 33 bc a8 6d 09 3d 00 ab 54 3c 80 b6 7d 3c
       -0.010971479 0.033551842 0.012980223 0.015485406
0003d0 17 1e a5 3d d5 e5 36 bd 01 16 9d bd 60 b1 93 3b
       0.0806238 -0.04465278 -0.076702125 0.0045072287
0003e0 88 46 48 bd d2 91 8c bd b9 4a 8b 3d f8 db 01 bd
       -0.04889539 -0.068637505 0.068013616 -0.03170392
0003f0 ec 98 18 bd 9d e2 ad 3d f0 16 81 bb e8 17 be 3c
       -0.037255213 0.08490489 -0.003939502 0.023204759

linear2.bias f4 [2]
000000 2c 16 45 3c 1a 95 22 bd
       0.012029212 -0.039692976
